…
2023-04-23 00:26:09.507240: I tensorflow/core/platform/cpu_feature_guard.cc:193] This TensorFlow binary is optimized with oneAPI Deep Neural Network Library (oneDNN) to use the following CPU instructions in performance-critical operations:  SSE4.1 SSE4.2 AVX AVX2 AVX512F AVX512_VNNI FMA
To enable them in other operations, rebuild TensorFlow with the appropriate compiler flags.
2023-04-23 00:26:09.513518: I tensorflow/core/common_runtime/process_util.cc:146] Creating new thread pool with default inter op setting: 2. Tune using inter_op_parallelism_threads for best performance.
<KeysViewHDF5 ['figure', 'id', 'target']>
Model: "sequential"
_________________________________________________________________
 Layer (type)                Output Shape              Param #   
=================================================================
 conv2d (Conv2D)             (None, 819, 256, 32)      320       
                                                                 
 leaky_re_lu (LeakyReLU)     (None, 819, 256, 32)      0         
                                                                 
 max_pooling2d (MaxPooling2D  (None, 410, 128, 32)     0         
 )                                                               
                                                                 
 dropout (Dropout)           (None, 410, 128, 32)      0         
                                                                 
 conv2d_1 (Conv2D)           (None, 410, 128, 64)      18496     
                                                                 
 leaky_re_lu_1 (LeakyReLU)   (None, 410, 128, 64)      0         
                                                                 
 max_pooling2d_1 (MaxPooling  (None, 205, 64, 64)      0         
 2D)                                                             
                                                                 
 dropout_1 (Dropout)         (None, 205, 64, 64)       0         
                                                                 
 conv2d_2 (Conv2D)           (None, 205, 64, 128)      73856     
                                                                 
 leaky_re_lu_2 (LeakyReLU)   (None, 205, 64, 128)      0         
                                                                 
 max_pooling2d_2 (MaxPooling  (None, 103, 32, 128)     0         
 2D)                                                             
                                                                 
 dropout_2 (Dropout)         (None, 103, 32, 128)      0         
                                                                 
 flatten (Flatten)           (None, 421888)            0         
                                                                 
 dense (Dense)               (None, 128)               54001792  
                                                                 
 leaky_re_lu_3 (LeakyReLU)   (None, 128)               0         
                                                                 
 dropout_3 (Dropout)         (None, 128)               0         
                                                                 
 dense_1 (Dense)             (None, 2)                 258       
                                                                 
=================================================================
Total params: 54,094,722
Trainable params: 54,094,722
Non-trainable params: 0
_________________________________________________________________
Epoch 1/20
  1/750 [..............................] - ETA: 58:12 - loss: 0.6354 - accuracy: 0.7656
…
